…
2591/2591 ━━━━━━━━━━━━━━━━━━━━ 482s 186ms/step - accuracy: 0.9332 - loss: 0.0022 - val_accuracy: 0.8789 - val_loss: 0.0043
Epoch 9/10
2591/2591 ━━━━━━━━━━━━━━━━━━━━ 482s 186ms/step - accuracy: 0.9427 - loss: 0.0019 - val_accuracy: 0.9023 - val_loss: 0.0036
Epoch 10/10
2591/2591 ━━━━━━━━━━━━━━━━━━━━ 482s 186ms/step - accuracy: 0.9498 - loss: 0.0017 - val_accuracy: 0.9044 - val_loss: 0.0035
Model: "functional"
┏━━━━━━━━━━━━━━━━━━━━━━━━━━━━━━━━━━━━━━┳━━━━━━━━━━━━━━━━━━━━━━━━━━━━━┳━━━━━━━━━━━━━━━━━┓
┃ Layer (type)                         ┃ Output Shape                ┃         Param # ┃
┡━━━━━━━━━━━━━━━━━━━━━━━━━━━━━━━━━━━━━━╇━━━━━━━━━━━━━━━━━━━━━━━━━━━━━╇━━━━━━━━━━━━━━━━━┩
│ input_layer (InputLayer)             │ (None, 200, 200, 3)         │               0 │
├──────────────────────────────────────┼─────────────────────────────┼─────────────────┤
│ conv2d (Conv2D)                      │ (None, 198, 198, 8)         │             224 │
├──────────────────────────────────────┼─────────────────────────────┼─────────────────┤
│ max_pooling2d (MaxPooling2D)         │ (None, 99, 99, 8)           │               0 │
├──────────────────────────────────────┼─────────────────────────────┼─────────────────┤
│ conv2d_1 (Conv2D)                    │ (None, 97, 97, 16)          │           1,168 │
├──────────────────────────────────────┼─────────────────────────────┼─────────────────┤
│ max_pooling2d_1 (MaxPooling2D)       │ (None, 48, 48, 16)          │               0 │
├──────────────────────────────────────┼─────────────────────────────┼─────────────────┤
│ conv2d_2 (Conv2D)                    │ (None, 46, 46, 32)          │           4,640 │
├──────────────────────────────────────┼─────────────────────────────┼─────────────────┤
│ max_pooling2d_2 (MaxPooling2D)       │ (None, 23, 23, 32)          │               0 │
├──────────────────────────────────────┼─────────────────────────────┼─────────────────┤
│ flatten (Flatten)                    │ (None, 16928)               │               0 │
├──────────────────────────────────────┼─────────────────────────────┼─────────────────┤
│ dense (Dense)                        │ (None, 29)                  │         490,941 │
└──────────────────────────────────────┴─────────────────────────────┴─────────────────┘
 Total params: 496,973 (1.90 MB)
 Trainable params: 496,973 (1.90 MB)
 Non-trainable params: 0 (0.00 B)
None