…
2591/2591 ━━━━━━━━━━━━━━━━━━━━ 501s 185ms/step - accuracy: 0.9530 - loss: 0.1833 - val_accuracy: 0.8964 - val_loss: 0.7114
Epoch 9/10
2591/2591 ━━━━━━━━━━━━━━━━━━━━ 481s 186ms/step - accuracy: 0.9586 - loss: 0.1610 - val_accuracy: 0.8992 - val_loss: 0.7012
Epoch 10/10
2591/2591 ━━━━━━━━━━━━━━━━━━━━ 481s 186ms/step - accuracy: 0.9653 - loss: 0.1388 - val_accuracy: 0.8958 - val_loss: 0.8019
Model: "functional"
┏━━━━━━━━━━━━━━━━━━━━━━━━━━━━━━━━━━━━━━┳━━━━━━━━━━━━━━━━━━━━━━━━━━━━━┳━━━━━━━━━━━━━━━━━┓
┃ Layer (type)                         ┃ Output Shape                ┃         Param # ┃
┡━━━━━━━━━━━━━━━━━━━━━━━━━━━━━━━━━━━━━━╇━━━━━━━━━━━━━━━━━━━━━━━━━━━━━╇━━━━━━━━━━━━━━━━━┩
│ input_layer (InputLayer)             │ (None, 200, 200, 3)         │               0 │
├──────────────────────────────────────┼─────────────────────────────┼─────────────────┤
│ conv2d (Conv2D)                      │ (None, 198, 198, 8)         │             224 │
├──────────────────────────────────────┼─────────────────────────────┼─────────────────┤
│ max_pooling2d (MaxPooling2D)         │ (None, 99, 99, 8)           │               0 │
├──────────────────────────────────────┼─────────────────────────────┼─────────────────┤
│ conv2d_1 (Conv2D)                    │ (None, 97, 97, 16)          │           1,168 │
├──────────────────────────────────────┼─────────────────────────────┼─────────────────┤
│ max_pooling2d_1 (MaxPooling2D)       │ (None, 48, 48, 16)          │               0 │
├──────────────────────────────────────┼─────────────────────────────┼─────────────────┤
│ conv2d_2 (Conv2D)                    │ (None, 46, 46, 32)          │           4,640 │
├──────────────────────────────────────┼─────────────────────────────┼─────────────────┤
│ max_pooling2d_2 (MaxPooling2D)       │ (None, 23, 23, 32)          │               0 │
├──────────────────────────────────────┼─────────────────────────────┼─────────────────┤
│ flatten (Flatten)                    │ (None, 16928)               │               0 │
├──────────────────────────────────────┼─────────────────────────────┼─────────────────┤
│ dense (Dense)                        │ (None, 29)                  │         490,941 │
└──────────────────────────────────────┴─────────────────────────────┴─────────────────┘
 Total params: 496,973 (1.90 MB)
 Trainable params: 496,973 (1.90 MB)
 Non-trainable params: 0 (0.00 B)
None