…
2591/2591 ━━━━━━━━━━━━━━━━━━━━ 665s 257ms/step - accuracy: 0.8880 - loss: 0.0045 - val_accuracy: 0.8117 - val_loss: 0.0075
Epoch 9/10
2591/2591 ━━━━━━━━━━━━━━━━━━━━ 658s 254ms/step - accuracy: 0.8806 - loss: 0.0048 - val_accuracy: 0.8536 - val_loss: 0.0059
Epoch 10/10
2591/2591 ━━━━━━━━━━━━━━━━━━━━ 660s 255ms/step - accuracy: 0.8848 - loss: 0.0047 - val_accuracy: 0.8410 - val_loss: 0.0065
Model: "functional"
┏━━━━━━━━━━━━━━━━━━━━━━━━━━━━━━━━━━━━━━┳━━━━━━━━━━━━━━━━━━━━━━━━━━━━━┳━━━━━━━━━━━━━━━━━┓
┃ Layer (type)                         ┃ Output Shape                ┃         Param # ┃
┡━━━━━━━━━━━━━━━━━━━━━━━━━━━━━━━━━━━━━━╇━━━━━━━━━━━━━━━━━━━━━━━━━━━━━╇━━━━━━━━━━━━━━━━━┩
│ input_layer (InputLayer)             │ (None, 200, 200, 3)         │               0 │
├──────────────────────────────────────┼─────────────────────────────┼─────────────────┤
│ conv2d (Conv2D)                      │ (None, 198, 198, 8)         │             224 │
├──────────────────────────────────────┼─────────────────────────────┼─────────────────┤
│ max_pooling2d (MaxPooling2D)         │ (None, 99, 99, 8)           │               0 │
├──────────────────────────────────────┼─────────────────────────────┼─────────────────┤
│ conv2d_1 (Conv2D)                    │ (None, 97, 97, 16)          │           1,168 │
├──────────────────────────────────────┼─────────────────────────────┼─────────────────┤
│ max_pooling2d_1 (MaxPooling2D)       │ (None, 48, 48, 16)          │               0 │
├──────────────────────────────────────┼─────────────────────────────┼─────────────────┤
│ conv2d_2 (Conv2D)                    │ (None, 46, 46, 32)          │           4,640 │
├──────────────────────────────────────┼─────────────────────────────┼─────────────────┤
│ max_pooling2d_2 (MaxPooling2D)       │ (None, 23, 23, 32)          │               0 │
├──────────────────────────────────────┼─────────────────────────────┼─────────────────┤
│ flatten (Flatten)                    │ (None, 16928)               │               0 │
├──────────────────────────────────────┼─────────────────────────────┼─────────────────┤
│ dense (Dense)                        │ (None, 1024)                │      17,335,296 │
├──────────────────────────────────────┼─────────────────────────────┼─────────────────┤
│ dense_1 (Dense)                      │ (None, 29)                  │          29,725 │
└──────────────────────────────────────┴─────────────────────────────┴─────────────────┘
 Total params: 17,371,053 (66.27 MB)
 Trainable params: 17,371,053 (66.27 MB)
 Non-trainable params: 0 (0.00 B)
None