…
2591/2591 ━━━━━━━━━━━━━━━━━━━━ 517s 199ms/step - accuracy: 0.8050 - loss: 0.0046 - val_accuracy: 0.7350 - val_loss: 0.0067
Epoch 9/10
2591/2591 ━━━━━━━━━━━━━━━━━━━━ 489s 189ms/step - accuracy: 0.8134 - loss: 0.0045 - val_accuracy: 0.7446 - val_loss: 0.0066
Epoch 10/10
2591/2591 ━━━━━━━━━━━━━━━━━━━━ 483s 186ms/step - accuracy: 0.8245 - loss: 0.0042 - val_accuracy: 0.7661 - val_loss: 0.0060
Model: "functional"
┏━━━━━━━━━━━━━━━━━━━━━━━━━━━━━━━━━━━━━━┳━━━━━━━━━━━━━━━━━━━━━━━━━━━━━┳━━━━━━━━━━━━━━━━━┓
┃ Layer (type)                         ┃ Output Shape                ┃         Param # ┃
┡━━━━━━━━━━━━━━━━━━━━━━━━━━━━━━━━━━━━━━╇━━━━━━━━━━━━━━━━━━━━━━━━━━━━━╇━━━━━━━━━━━━━━━━━┩
│ input_layer (InputLayer)             │ (None, 200, 200, 3)         │               0 │
├──────────────────────────────────────┼─────────────────────────────┼─────────────────┤
│ conv2d (Conv2D)                      │ (None, 198, 198, 8)         │             224 │
├──────────────────────────────────────┼─────────────────────────────┼─────────────────┤
│ max_pooling2d (MaxPooling2D)         │ (None, 99, 99, 8)           │               0 │
├──────────────────────────────────────┼─────────────────────────────┼─────────────────┤
│ conv2d_1 (Conv2D)                    │ (None, 97, 97, 16)          │           1,168 │
├──────────────────────────────────────┼─────────────────────────────┼─────────────────┤
│ max_pooling2d_1 (MaxPooling2D)       │ (None, 48, 48, 16)          │               0 │
├──────────────────────────────────────┼─────────────────────────────┼─────────────────┤
│ conv2d_2 (Conv2D)                    │ (None, 46, 46, 32)          │           4,640 │
├──────────────────────────────────────┼─────────────────────────────┼─────────────────┤
│ max_pooling2d_2 (MaxPooling2D)       │ (None, 23, 23, 32)          │               0 │
├──────────────────────────────────────┼─────────────────────────────┼─────────────────┤
│ flatten (Flatten)                    │ (None, 16928)               │               0 │
├──────────────────────────────────────┼─────────────────────────────┼─────────────────┤
│ dense (Dense)                        │ (None, 29)                  │         490,941 │
└──────────────────────────────────────┴─────────────────────────────┴─────────────────┘
 Total params: 496,973 (1.90 MB)
 Trainable params: 496,973 (1.90 MB)
 Non-trainable params: 0 (0.00 B)
None