…
2591/2591 ━━━━━━━━━━━━━━━━━━━━ 630s 243ms/step - accuracy: 0.8852 - loss: 0.0033 - val_accuracy: 0.8198 - val_loss: 0.0053
Epoch 9/10
2591/2591 ━━━━━━━━━━━━━━━━━━━━ 624s 241ms/step - accuracy: 0.8904 - loss: 0.0033 - val_accuracy: 0.8342 - val_loss: 0.0050
Epoch 10/10
2591/2591 ━━━━━━━━━━━━━━━━━━━━ 620s 239ms/step - accuracy: 0.8948 - loss: 0.0032 - val_accuracy: 0.8313 - val_loss: 0.0052
Model: "functional"
┏━━━━━━━━━━━━━━━━━━━━━━━━━━━━━━━━━━━━━━┳━━━━━━━━━━━━━━━━━━━━━━━━━━━━━┳━━━━━━━━━━━━━━━━━┓
┃ Layer (type)                         ┃ Output Shape                ┃         Param # ┃
┡━━━━━━━━━━━━━━━━━━━━━━━━━━━━━━━━━━━━━━╇━━━━━━━━━━━━━━━━━━━━━━━━━━━━━╇━━━━━━━━━━━━━━━━━┩
│ input_layer (InputLayer)             │ (None, 200, 200, 3)         │               0 │
├──────────────────────────────────────┼─────────────────────────────┼─────────────────┤
│ conv2d (Conv2D)                      │ (None, 198, 198, 8)         │             224 │
├──────────────────────────────────────┼─────────────────────────────┼─────────────────┤
│ max_pooling2d (MaxPooling2D)         │ (None, 99, 99, 8)           │               0 │
├──────────────────────────────────────┼─────────────────────────────┼─────────────────┤
│ conv2d_1 (Conv2D)                    │ (None, 97, 97, 16)          │           1,168 │
├──────────────────────────────────────┼─────────────────────────────┼─────────────────┤
│ max_pooling2d_1 (MaxPooling2D)       │ (None, 48, 48, 16)          │               0 │
├──────────────────────────────────────┼─────────────────────────────┼─────────────────┤
│ conv2d_2 (Conv2D)                    │ (None, 46, 46, 16)          │           2,320 │
├──────────────────────────────────────┼─────────────────────────────┼─────────────────┤
│ max_pooling2d_2 (MaxPooling2D)       │ (None, 23, 23, 16)          │               0 │
├──────────────────────────────────────┼─────────────────────────────┼─────────────────┤
│ flatten (Flatten)                    │ (None, 8464)                │               0 │
├──────────────────────────────────────┼─────────────────────────────┼─────────────────┤
│ dense (Dense)                        │ (None, 29)                  │         245,485 │
└──────────────────────────────────────┴─────────────────────────────┴─────────────────┘
 Total params: 249,197 (973.43 KB)
 Trainable params: 249,197 (973.43 KB)
 Non-trainable params: 0 (0.00 B)
None